…
.01, no_cuda=False, nopool=False, pad=1, planes=10, rotated=False, samples=None, savestr='', seed=41, sharedCNN=False, sharedPool=False, shift_augment=False, step=10, test_batch_size=256, train_fraction=1.0, uniform=True, wd=1e-05)
==========================================================================================
Layer (type:depth-idx)                   Output Shape              Param #
==========================================================================================
Net                                      --                        --
├─P4ConvZ2: 1-1                          [256, 10, 4, 28, 28]      280
├─BatchNorm3d: 1-2                       [256, 10, 4, 28, 28]      20
├─Dropout: 1-3                           [256, 10, 4, 28, 28]      --
├─P4ConvP4: 1-4                          [256, 10, 4, 28, 28]      3,610
├─BatchNorm3d: 1-5                       [256, 10, 4, 28, 28]      20
├─GroupMaxPool2d: 1-6                    [256, 10, 4, 14, 14]      --
├─P4ConvP4: 1-7                          [256, 10, 4, 14, 14]      3,610
├─BatchNorm3d: 1-8                       [256, 10, 4, 14, 14]      20
├─Dropout: 1-9                           [256, 10, 4, 14, 14]      --
├─P4ConvP4: 1-10                         [256, 10, 4, 14, 14]      3,610
├─BatchNorm3d: 1-11                      [256, 10, 4, 14, 14]      20
├─Dropout: 1-12                          [256, 10, 4, 14, 14]      --
├─P4ConvP4: 1-13                         [256, 10, 4, 14, 14]      3,610
├─BatchNorm3d: 1-14                      [256, 10, 4, 14, 14]      20
├─Dropout: 1-15                          [256, 10, 4, 14, 14]      --
├─P4ConvP4: 1-16                         [256, 10, 4, 14, 14]      3,610
├─BatchNorm3d: 1-17                      [256, 10, 4, 14, 14]      20
├─P4ConvP4: 1-18                         [256, 10, 4, 11, 11]      6,410
├─BatchNorm3d: 1-19                      [256, 10, 4, 11, 11]      20
├─AdaptiveAvgPool2d: 1-20                [256, 40, 1, 1]           --
├─GroupCosetMaxPool: 1-21                [256, 10, 1, 1]           --
├─Linear: 1-22                           [256, 10]                 110
==========================================================================================
Total params: 24,990
Trainable params: 24,990
Non-trainable params: 0
Total mult-adds (G): 6.82
==========================================================================================
Input size (MB): 2.41
Forward/backward pass size (MB): 405.20
Params size (MB): 0.10
Estimated Total Size (MB): 407.71
==========================================================================================
…
Namespace(batch_size=256, biased_mean=45.0, biased_std=5.0, biased_training=True, cuda=True, dataset_path='./', epochs=50, equivariance='P4', input_size=27, log_interval=10, lr=0.01, no_cuda=False, nopool=False, pad=1, planes=10, rotated=False, samples=None, savestr='', seed=41, sharedCNN=False, sharedPool=False, shift_augment=False, step=10, test_batch_size=256, train_fraction=1.0, uniform=True, wd=1e-05)
==========================================================================================
Layer (type:depth-idx)                   Output Shape              Param #
==========================================================================================
Net                                      --                        --
├─P4ConvZ2: 1-1                          [256, 10, 4, 27, 27]      280
├─BatchNorm3d: 1-2                       [256, 10, 4, 27, 27]      20
├─Dropout: 1-3                           [256, 10, 4, 27, 27]      --
├─P4ConvP4: 1-4                          [256, 10, 4, 27, 27]      3,610
├─BatchNorm3d: 1-5                       [256, 10, 4, 27, 27]      20
├─GroupMaxPool2d: 1-6                    [256, 10, 4, 13, 13]      --
├─P4ConvP4: 1-7                          [256, 10, 4, 13, 13]      3,610
├─BatchNorm3d: 1-8                       [256, 10, 4, 13, 13]      20
├─Dropout: 1-9                           [256, 10, 4, 13, 13]      --
├─P4ConvP4: 1-10                         [256, 10, 4, 13, 13]      3,610
├─BatchNorm3d: 1-11                      [256, 10, 4, 13, 13]      20
├─Dropout: 1-12                          [256, 10, 4, 13, 13]      --
├─P4ConvP4: 1-13                         [256, 10, 4, 13, 13]      3,610
├─BatchNorm3d: 1-14                      [256, 10, 4, 13, 13]      20
├─Dropout: 1-15                          [256, 10, 4, 13, 13]      --
├─P4ConvP4: 1-16                         [256, 10, 4, 13, 13]      3,610
├─BatchNorm3d: 1-17                      [256, 10, 4, 13, 13]      20
├─P4ConvP4: 1-18                         [256, 10, 4, 10, 10]      6,410
├─BatchNorm3d: 1-19                      [256, 10, 4, 10, 10]      20
├─AdaptiveAvgPool2d: 1-20                [256, 40, 1, 1]           --
├─GroupCosetMaxPool: 1-21                [256, 10, 1, 1]           --
├─Linear: 1-22                           [256, 10]                 110
==========================================================================================
Total params: 24,990
Trainable params: 24,990
Non-trainable params: 0
Total mult-adds (G): 6.06
==========================================================================================
Input size (MB): 2.24
Forward/backward pass size (MB): 366.04
Params size (MB): 0.10
Estimated Total Size (MB): 368.38
==========================================================================================
…
Namespace(batch_size=256, biased_mean=45.0, biased_std=5.0, biased_training=True, cuda=True, dataset_path='./', epochs=50, equivariance='P4', input_size=29, log_interval=10, lr=0.01, no_cuda=False, nopool=False, pad=1, planes=10, rotated=False, samples=None, savestr='', seed=41, sharedCNN=False, sharedPool=False, shift_augment=False, step=10, test_batch_size=256, train_fraction=1.0, uniform=True, wd=1e-05)
==========================================================================================
Layer (type:depth-idx)                   Output Shape              Param #
==========================================================================================
Net                                      --                        --
├─P4ConvZ2: 1-1                          [256, 10, 4, 29, 29]      280
├─BatchNorm3d: 1-2                       [256, 10, 4, 29, 29]      20
├─Dropout: 1-3                           [256, 10, 4, 29, 29]      --
├─P4ConvP4: 1-4                          [256, 10, 4, 29, 29]      3,610
├─BatchNorm3d: 1-5                       [256, 10, 4, 29, 29]      20
├─GroupMaxPool2d: 1-6                    [256, 10, 4, 14, 14]      --
├─P4ConvP4: 1-7                          [256, 10, 4, 14, 14]      3,610
├─BatchNorm3d: 1-8                       [256, 10, 4, 14, 14]      20
├─Dropout: 1-9                           [256, 10, 4, 14, 14]      --
├─P4ConvP4: 1-10                         [256, 10, 4, 14, 14]      3,610
├─BatchNorm3d: 1-11                      [256, 10, 4, 14, 14]      20
├─Dropout: 1-12                          [256, 10, 4, 14, 14]      --
├─P4ConvP4: 1-13                         [256, 10, 4, 14, 14]      3,610
├─BatchNorm3d: 1-14                      [256, 10, 4, 14, 14]      20
├─Dropout: 1-15                          [256, 10, 4, 14, 14]      --
├─P4ConvP4: 1-16                         [256, 10, 4, 14, 14]      3,610
├─BatchNorm3d: 1-17                      [256, 10, 4, 14, 14]      20
├─P4ConvP4: 1-18                         [256, 10, 4, 11, 11]      6,410
├─BatchNorm3d: 1-19                      [256, 10, 4, 11, 11]      20
├─AdaptiveAvgPool2d: 1-20                [256, 40, 1, 1]           --
├─GroupCosetMaxPool: 1-21                [256, 10, 1, 1]           --
├─Linear: 1-22                           [256, 10]                 110
==========================================================================================
Total params: 24,990
Trainable params: 24,990
Non-trainable params: 0
Total mult-adds (G): 7.04
==========================================================================================
Input size (MB): 2.58
Forward/backward pass size (MB): 423.87
Params size (MB): 0.10
Estimated Total Size (MB): 426.56
==========================================================================================
…
Namespace(batch_size=256, biased_mean=45.0, biased_std=5.0, biased_training=True, cuda=True, dataset_path='./', epochs=50, equivariance='Z2', input_size=28, log_interval=10, lr=0.01, no_cuda=False, nopool=False, pad=1, planes=20, rotated=False, samples=None, savestr='', seed=41, sharedCNN=False, sharedPool=False, shift_augment=False, step=10, test_batch_size=256, train_fraction=1.0, uniform=True, wd=1e-05)
==========================================================================================
Layer (type:depth-idx)                   Output Shape              Param #
==========================================================================================
Net                                      --                        --
├─Conv2d: 1-1                            [256, 20, 28, 28]         560
├─BatchNorm2d: 1-2                       [256, 20, 28, 28]         40
├─Dropout: 1-3                           [256, 20, 28, 28]         --
├─Conv2d: 1-4                            [256, 20, 28, 28]         3,620
├─BatchNorm2d: 1-5                       [256, 20, 28, 28]         40
├─MaxPool2d: 1-6                         [256, 20, 14, 14]         --
├─Conv2d: 1-7                            [256, 20, 14, 14]         3,620
├─BatchNorm2d: 1-8                       [256, 20, 14, 14]         40
├─Dropout: 1-9                           [256, 20, 14, 14]         --
├─Conv2d: 1-10                           [256, 20, 14, 14]         3,620
├─BatchNorm2d: 1-11                      [256, 20, 14, 14]         40
├─Dropout: 1-12                          [256, 20, 14, 14]         --
├─Conv2d: 1-13                           [256, 20, 14, 14]         3,620
├─BatchNorm2d: 1-14                      [256, 20, 14, 14]         40
├─Dropout: 1-15                          [256, 20, 14, 14]         --
├─Conv2d: 1-16                           [256, 20, 14, 14]         3,620
├─BatchNorm2d: 1-17                      [256, 20, 14, 14]         40
├─Conv2d: 1-18                           [256, 20, 11, 11]         6,420
├─BatchNorm2d: 1-19                      [256, 20, 11, 11]         40
├─AdaptiveAvgPool2d: 1-20                [256, 20, 1, 1]           --
├─Linear: 1-21                           [256, 10]                 210
==========================================================================================
Total params: 25,570
Trainable params: 25,570
Non-trainable params: 0
Total mult-adds (G): 1.76
==========================================================================================
Input size (MB): 2.41
Forward/backward pass size (MB): 202.61
Params size (MB): 0.10
Estimated Total Size (MB): 205.12
==========================================================================================
…
